models_saved/simple_autoencoder.pth (torch, 167330 bytes, 12 tensors)

encoder.0.weight f4 [128, 77]
000000 d8 c9 30 be b3 97 44 bd 12 6b 87 3b 64 92 10 3d
       -0.17264497 -0.047996234 0.004132637 0.03529586
000010 69 02 1c bd 48 48 bc 3c 41 fc 07 3e e7 d1 cd bd
       -0.038088236 0.022983685 0.13279821 -0.10049801
000020 fb bb 59 bd cf 7e 1b 3e 02 0c d9 3d 9c bf 2b be
       -0.053157788 0.15185092 0.105979934 -0.16772312
000030 fb 76 88 3c a5 ec 6d 3d fa ad 8f bd 57 88 6d 3e
       0.016658297 0.05808701 -0.07015605 0.23196541
000040 bb b1 34 3e cb fd 3e bc cb ca 84 bd f6 09 58 bd
       0.17645924 -0.011657189 -0.06483992 -0.052743874
000050 3d c4 03 3e f4 0b 37 3e e2 3a f6 3d b9 66 17 3e
       0.12867828 0.17875654 0.1202295 0.1478528
000060 2a 0d a8 bc bf e5 0a 3e 84 30 84 bd 39 66 10 3e
       -0.02051409 0.13564204 -0.06454566 0.14101495
000070 71 34 11 3d 82 ff 18 be 72 7c 16 be 0a b9 b8 bd
       0.035450403 -0.14941218 -0.1469591 -0.090196684
000080 40 e2 a8 bd d6 db b7 3d 80 6f 9c bd bb c0 e8 3d
       -0.08246279 0.08977477 -0.076384544 0.113648854
000090 f0 21 84 3e 6d eb 87 be 42 b8 3c 3d d8 e8 bc 3b
       0.25807142 -0.26546803 0.04607416 0.005765062
0000a0 c8 54 4b bd 78 42 7f bc 1f 66 99 3d 8e d6 9a 3d
       -0.0496414 -0.015579812 0.07490181 0.07560454
0000b0 9e 60 9c be 9a fa 44 be 68 8d 85 3d 75 f7 13 3e
       -0.30542463 -0.19236222 0.06521112 0.14449866
0000c0 ba 1e f4 bd 10 01 d7 bb 80 bc d9 3b e3 78 2a be
       -0.11919923 -0.006561406 0.0066447854 -0.16647677
0000d0 bc c2 07 3e b5 25 90 bc 62 ae df 3c 14 29 2f 3d
       0.13257879 -0.017596105 0.027304832 0.042763785
0000e0 20 61 04 bd c8 1e 96 3d 50 a7 c0 3d cf 40 9e bd
       -0.032319188 0.0733009 0.09406912 -0.07727205
0000f0 7e 84 a3 3d 56 f1 87 bd 8a 24 af 3c d2 e2 0e bc
       0.07984255 -0.06637828 0.021379728 -0.00872107
000100 6c 30 49 bd ff 9e ed 3d bc 85 53 be e3 68 89 3d
       -0.049118444 0.11602592 -0.20656484 0.06709459
000110 a5 fc 79 3d d3 18 75 3e 30 a1 6b bb b0 82 84 3e
       0.061031956 0.23935251 -0.003595423 0.25880957
000120 ae 4f 89 3e ce a2 a8 3d f1 d6 03 bd 6e af 01 3c
       0.26818603 0.082341775 -0.032187406 0.007915361
000130 e3 97 47 3d e3 a8 88 be b6 a3 1e be 23 9e 3d 3d
       0.048728835 -0.2669135 -0.15492138 0.04629339
000140 b9 c8 9a bd ae 73 0b bd 61 6f ab bd ba 9f c1 3d
       -0.07557816 -0.034045868 -0.08370853 0.094542935
000150 b1 df 82 3e 25 e1 d9 3d 0d 27 06 3e d8 a5 27 3e
       0.25561288 0.10638646 0.13100834 0.16371858
000160 94 0c 5a 3e 73 17 9a 3b 8a 96 3e 3d 4f aa 64 3d
       0.2129386 0.0047025024 0.046530284 0.05582648
000170 66 cf 1d 3e 9a 9c 62 bd ef 7c 4e 3d 84 ea 67 3b
       0.15411147 -0.05532513 0.050412115 0.0035387585
000180 36 0d d9 3c fd 08 4f bd d9 3f e3 3c 83 14 4a 3c
       0.026495557 -0.05054568 0.027740406 0.012333992
000190 2b b9 9f 3c 11 28 bf 3d 2d b9 3e be b1 e4 1f 3d
       0.019497475 0.09333814 -0.18625326 0.039036456
0001a0 3c ff 0d 3d ef ff 65 3d 0f 69 ce 3d 7b bc 98 bc
       0.03466724 0.05615228 0.10078632 -0.018644562
0001b0 d8 c8 1b bd 4f f3 53 bd 0c e7 1e 3d 89 97 71 be
       -0.038033336 -0.05174571 0.038794562 -0.23592962
0001c0 44 13 2c bd a9 8e 9b 3e df dd b0 bc c7 1a 67 be
       -0.04201056 0.3038228 -0.021590171 -0.22568808
0001d0 21 f0 1a 3e 95 93 f3 bd a0 74 62 3d fe 3b d2 bc
       0.15130664 -0.118933834 0.055287004 -0.025663372
0001e0 b6 f6 b1 bd 99 97 f6 3d 3c 08 d0 3d 54 e9 d5 bd
       -0.086896345 0.12040634 0.101578206 -0.104448944
0001f0 02 ae f3 bd 10 0e 84 3e 6b cf 4e 3e 0c fc 7f 3d
       -0.11898424 0.2579198 0.20196311 0.06249623
000200 6e 7d 97 bd 7b 5e a7 bb 3a e9 17 3e 0a 9c 7c bd
       -0.07396971 -0.0051076985 0.14835063 -0.061672248
000210 e4 34 80 3d de 9b 82 3d 9a 5a 8e bd 0c 67 a7 3d
       0.06260088 0.063773856 -0.069508746 0.081739515
000220 7e 42 a7 bd 38 28 da 3d 23 54 09 bd 42 13 b3 bd
       -0.08166979 0.10652202 -0.033527505 -0.087439075
000230 45 3e a4 3d 7b 1d e7 bb 8e a4 49 3e 25 5f 88 be
       0.080196895 -0.007053075 0.19691679 -0.2663509
000240 36 82 88 3d e6 46 fc bd 5a 04 e9 3d 95 8c 0d bc
       0.06665461 -0.1231821 0.11377783 -0.008639474
000250 4d 03 3f 3d 5f 11 be bd a7 73 02 3d af 31 35 3e
       0.046634007 -0.09280657 0.031848576 0.17694734
000260 d3 d7 00 3d d7 b1 eb bc bb 63 31 bd 6c 10 99 3d
       0.031455826 -0.028771324 -0.043308 0.07473835
000270 de 26 01 3e a3 19 b8 bd 1a 60 42 be 5f cc 22 be
       0.12612483 -0.08989265 -0.18981972 -0.15898274
000280 81 0d 08 be 2b 79 2d 3d ee 9c de bd 33 f7 16 be
       -0.13286401 0.042351883 -0.10869776 -0.14742737
000290 02 12 ee bc ad 33 bb bd cf e8 b9 3d 87 17 d7 bc
       -0.029061321 -0.09140716 0.09077608 -0.026256336
0002a0 7f 71 d8 bb e4 9d 26 3e 55 a5 2d 3d 37 4c 78 3e
       -0.0066053267 0.16271168 0.042394 0.24247824
0002b0 04 66 7d 3d ed f3 2e 3d f7 12 34 3e 83 b8 45 3d
       0.061864868 0.042713095 0.1758536 0.048271667
0002c0 9d 01 6d 3e 4c fe 16 3e 24 31 60 3d 77 9e 5a be
       0.23145147 0.14745444 0.054734364 -0.21349512
0002d0 86 61 18 bf 63 9e e3 be b8 32 c5 be 61 ac 3c 3d
       -0.5952381 -0.44456777 -0.38515258 0.04606283
0002e0 c2 e4 1d 3e e6 7c df 3d cc b9 9b bc 5e bd 89 bd
       0.15419295 0.10912494 -0.019009493 -0.06725572
0002f0 1d 22 9e bd 97 a3 41 be 5a 81 6a 3e a8 da 80 bd
       -0.0772135 -0.18910061 0.22900906 -0.06291705
000300 6b fb fa 3d 5b 59 20 bd e7 5f 7e 3d 3b dd 0a 3b
       0.122549854 -0.039147716 0.06210318 0.0021188993
000310 e2 bb d4 bd 9f 57 be bd e9 93 18 3e d4 63 34 3e
       -0.10387398 -0.09294056 0.14900173 0.17616206
000320 10 08 86 3d dd 3b 00 bd cd d0 33 3e f5 ef 65 3d
       0.065445065 -0.03130709 0.1756012 0.056137044
000330 7c fc f6 bc d7 98 18 be b0 aa 3e 3d 29 67 fb bb
       -0.03014969 -0.14902054 0.0465495 -0.0076722098
000340 43 03 8e 3d 2e bd c2 3d 0c 2f a7 bd 04 bd c8 bc
       0.06934216 0.095087394 -0.0816327 -0.024504192
000350 ee 0b c5 bd e0 25 d3 3b ec 65 e1 bd d6 8e 5e 3d
       -0.09621416 0.006443724 -0.11005768 0.054335438
000360 d6 a4 62 be 47 bd bf bd ec 9c dc bd fd a2 57 bc
       -0.22133192 -0.09362274 -0.10772118 -0.013161418
000370 4a ed 37 be 0e cc 19 be 14 b1 b5 3d e5 ac 4c bd
       -0.17961612 -0.15019247 0.088716656 -0.049969573
000380 6e 30 bb be 9e 69 7c be 86 46 ba bd 9e 07 5c 3e
       -0.36560386 -0.24649665 -0.090954825 0.2148728
000390 e4 6e 83 be 43 67 1c 3e da 93 1e 3e 6c ce 4c be
       -0.2567054 0.15273766 0.15486088 -0.20000619
0003a0 bc 40 53 3c 09 e4 c1 3d 09 c1 b2 bc 3e 58 51 3d
       0.012893852 0.094673224 -0.021820562 0.051109545
0003b0 7e 3d f1 3c 84 be f9 3c 2d 24 cc 3d 81 29 1c bd
       0.029448267 0.030486353 0.099678375 -0.03812552
0003c0 86 5b 0a be cf 8e 4b bd 85 4c ca bc dc ef 7e 3d
       -0.13511476 -0.04969674 -0.02469469 0.062240466
0003d0 9b fd 80 bd 24 fe e9 3d 31 7c c8 bb 87 a2 23 3e
       -0.062983714 0.114254266 -0.0061183204 0.15979968
0003e0 36 ee 44 3e de 47 1c 3e 5d da 89 bc 61 03 e4 bd
       0.19231495 0.1526179 -0.016827757 -0.11133457
0003f0 99 e4 26 3e 7c b2 3b 3d 13 b6 14 3c cd ef fa 3d
       0.1629814 0.045824513 0.009076613 0.122527696

encoder.0.bias f4 [128]
000000 df 1f 3b 3e 5e 8e 74 3d 3e 97 dc 3a d0 9c 02 3d
       0.18273877 0.059706084 0.0016829742 0.03188783
000010 ac ea ee 3d 1d 24 79 3e 9e eb d9 3d 18 b7 de 3c
       0.11665854 0.24330182 0.106406435 0.027186915
000020 29 d3 e6 bd 42 a6 81 3d ac 2b 2a ba 90 2b f4 bd
       -0.11270744 0.06330539 -0.0006491493 -0.119223714
000030 2f 69 94 3d 0b fa 55 3e e7 d8 72 3e 1c e3 b4 bd
       0.07246625 0.20896165 0.23715554 -0.0883238
000040 c9 d9 7a be ed c3 c9 3d 9e 5f 20 3d d0 ed 6a 3e
       -0.24497141 0.09851823 0.039153688 0.22942281
000050 13 6f 1d 3e 42 77 c5 3d 2c ea 10 3e 55 33 8d 3d
       0.15374403 0.09641887 0.1415183 0.068945564
000060 c5 f4 16 bd c4 ea b6 3d 6d 81 20 3e 09 9d 3e 3e
       -0.036854524 0.08931497 0.15674372 0.18614592
000070 ca 40 c8 3e c0 01 2b bc 90 75 29 3e 9b 3e b2 3c
       0.3911193 -0.010437429 0.16548753 0.021758368
000080 f5 fb dc bc c7 38 70 3d 6a fb b7 3c a5 7c 57 3e
       -0.026975611 0.058647897 0.02245875 0.21043642
000090 79 eb e5 3d fd 51 89 bd da 1b b1 3d 05 e6 7c 3d
       0.112265535 -0.06705091 0.086478904 0.0617428
0000a0 08 9a 93 3d 83 6a 8c 3d 9f 1c 44 3d 86 d8 8b bd
       0.072071135 0.06856253 0.047878858 -0.06828408
0000b0 5f c5 38 3e 4b 2b 17 3d 58 70 fb 3d 1b 6f e1 3c
       0.18044041 0.03690652 0.12277287 0.0275188
0000c0 ab 09 3f 3e 1c ed 4d 3e 81 63 d6 3d 62 65 61 3e
       0.18656032 0.20109981 0.104681976 0.2201133
0000d0 4f 71 1c 3d 05 f6 20 be ee af 07 be 2d ea dd 3d
       0.038193997 -0.15718849 -0.13250706 0.10835681
0000e0 59 9b 5d 3d e0 79 36 3e af 01 14 3e ab fb 24 3d
       0.05410323 0.17819929 0.14453767 0.04027907
0000f0 2d f7 c5 3c 8d 86 3e 3e d8 1c 6a 3c 2a ea cf 3c
       0.024165714 0.18606015 0.014289103 0.025380213
000100 4d aa ef 3d 8c e2 e2 3e 46 f0 d6 bc d6 4c 4c 3e
       0.11702404 0.44313467 -0.026237618 0.19951186
000110 3d a1 7c 3d 59 49 34 be 77 55 f5 3d 19 46 f5 3d
       0.061677206 -0.17606105 0.11979192 0.11976261
000120 90 fc 81 bd 1a 3a 01 3e c1 25 22 3d 09 f7 55 3e
       -0.063470006 0.1261982 0.039586786 0.20895018
000130 06 93 fd bc 49 78 2e 3e 90 e2 1c 3e 71 32 2b bc
       -0.030953895 0.17038073 0.15320802 -0.010449038
000140 22 0c db 3c b4 ae c0 bd b2 45 81 3e 23 a0 9f bc
       0.026739184 -0.09408322 0.25248486 -0.019485539
000150 08 e7 f2 3b df 9e db bc 3e 94 6e 3c f2 4d 19 be
       0.007412795 -0.026809154 0.014561711 -0.1497114
000160 94 a9 2e 3e 16 3e 4a 3e 00 8d 2f 3e 89 89 52 3e
       0.17056876 0.19750246 0.17143631 0.20560278
000170 d5 43 b3 bb 97 cd 2f be 26 8a 3a 3e 5e bc 54 bc
       -0.0054707327 -0.1716827 0.18216762 -0.012984363
000180 07 ce 74 3d 4c 81 86 bd 8c b3 ba bd eb bb ee 3d
       0.059766795 -0.0656763 -0.09116277 0.11656936
000190 aa 55 fa 3c 2c cf 1b be 47 a3 ec 3c 61 c3 f2 3d
       0.030558426 -0.15215749 0.02888645 0.11853672
0001a0 79 6b 86 3d 4c 0b 14 be 93 c4 45 3e 2f 1b 3c be
       0.065634675 -0.14457434 0.19313268 -0.18369745
0001b0 28 31 3a 3e e1 81 a3 3e e8 4c 06 3f d9 e5 76 3e
       0.18182814 0.31935027 0.524611 0.24111117
0001c0 3a 44 74 3d 31 a3 1b 3e db 46 24 3e 5f b3 a5 3e
       0.05963538 0.15198971 0.16042654 0.32363412
0001d0 85 b1 0e bd 01 53 bb bd 31 19 5c 3e 4f 51 2e 3e
       -0.034837265 -0.09146691 0.21493985 0.17023204
0001e0 75 e5 a8 3c 5b 6e 2b 3e 7d b7 df 3d 5b 0b 5f 3e
       0.020617226 0.16741316 0.109236695 0.21781676
0001f0 41 c7 04 3e 3d 77 b1 3d 56 7f cb 3e 09 0b 24 3d
       0.12966634 0.08665321 0.39745587 0.040049586

encoder.2.weight f4 [64, 128]
000000 28 9b bb 3d c2 a6 19 3d 94 08 22 3e e7 43 58 3e
       0.09160453 0.03751255 0.15823585 0.21119653
000010 ba 42 c3 3d 01 7d 79 3d 31 86 49 bd 6b f8 01 3d
       0.095342115 0.06091023 -0.04920024 0.03173105
000020 9a 96 a2 bd fa 43 b5 bc 2a 76 47 3d b4 2b d8 bd
       -0.07938881 -0.02212714 0.048696674 -0.10555211
000030 0d 6e 0f 3e fa 97 77 3d 05 cf 93 bd ef 0f 1b 3e
       0.14006825 0.06044767 -0.0721722 0.15142797
000040 cd 04 a7 3d 89 38 8c 3c 27 42 d4 bc 1a 76 90 bd
       0.081552126 0.017116802 -0.02591045 -0.07053776
000050 79 13 e8 bd 80 27 59 bd 61 2b 0b 3d 29 0f c1 bc
       -0.11331839 -0.053016186 0.033976916 -0.0235668
000060 a0 ac be bd 62 9f 3f bd c2 07 12 bd 31 8b 52 3e
       -0.09310269 -0.04678286 -0.03565193 0.2056091
000070 f0 05 55 3d 5c 3c a5 bd e1 74 42 bd 57 a1 13 be
       0.052007616 -0.08068153 -0.047474746 -0.14417015
000080 25 3c b4 bc 4d 50 1d 3c 9a 4b 2f bc 51 cf 76 3e
       -0.022001335 0.009601665 -0.010699177 0.24102522
000090 c5 58 c7 bd 8d fe 11 bd bc 91 c1 bb 75 b2 11 bc
       -0.09733728 -0.03564315 -0.0059072655 -0.008892645
0000a0 a5 24 11 be 4d 25 02 3e ba d4 a7 bc f9 31 7c 3c
       -0.14174135 0.12709542 -0.020487178 0.015392774
0000b0 27 f9 e9 3d cc 3a a4 bc 39 b4 91 bd ff 91 e2 3d
       0.11424475 -0.020047568 -0.07114453 0.11063003
0000c0 a5 58 85 be 6e 0d 0d bd 60 a7 a0 bc 54 d3 48 3d
       -0.26044193 -0.034436636 -0.01961106 0.049029663
0000d0 46 76 2f be 69 b9 33 bd 68 d1 cf bc af ce 69 bd
       -0.17134961 -0.043877993 -0.025368407 -0.057081874
0000e0 77 e1 63 3e e3 d9 f0 3d a5 7e 20 bc c8 27 33 bd
       0.22253977 0.117603086 -0.009795819 -0.04373911
0000f0 1c dd 67 bd ae ff 1c 3e 7e 5a 81 3c 4e cd b3 bd
       -0.05660735 0.15331909 0.01579022 -0.08779393
000100 19 02 05 3c 20 5b c2 bd 17 5d 3d 3d 41 e7 47 bc
       0.008118176 -0.09490037 0.046231356 -0.012201131
000110 7e 3f 99 bd 41 1f 84 3c eb 05 50 be b8 1b 7e bd
       -0.07482813 0.016128184 -0.20314758 -0.062038153
000120 6a b3 87 bc 3a de 18 3e ce b9 53 bd 97 e0 7c 3d
       -0.016565043 0.14928523 -0.05169087 0.061737623
000130 99 f4 e4 bb 9a 7c d3 bd 33 f8 e5 bc 20 90 8d 3d
       -0.006987166 -0.103265 -0.028072452 0.06912255
000140 14 ba b2 bd 45 b2 b9 bd 07 77 c9 3d 86 6b 9a bd
       -0.08726898 -0.09067205 0.09837156 -0.0754004
000150 3d 33 3b bd d1 f2 05 3e 65 79 17 bd e3 da 32 bd
       -0.04570316 0.13080908 -0.036981005 -0.043665778
000160 f4 a5 01 3d 2a af b6 3d db 2d 17 bb 88 7a 4b 3e
       0.031652406 0.08920129 -0.0023068103 0.1987096
000170 45 9d 9c 3d 3e bc 9e bb ef b4 8d 3d 18 12 cb 3d
       0.07647184 -0.0048442176 0.06919276 0.099155605
000180 88 2c e4 3d 23 46 8a 3d 90 6a 90 bc 0f 59 89 3c
       0.11141306 0.06751659 -0.017628938 0.0167661
000190 27 08 85 3d 05 6e 60 bc b5 22 b1 3c a8 b4 98 3d
       0.064956956 -0.013698106 0.021622995 0.074563324
0001a0 e1 f9 1a 3d 03 62 3b 3d f5 bb 8d 3c 33 39 4e be
       0.03783596 0.045747768 0.017301539 -0.20139007
0001b0 4a 52 c4 bd 19 81 3b 3e e2 ab 16 3e 5d 5d 98 3c
       -0.09586008 0.18310966 0.14714006 0.018599207
0001c0 f8 25 53 bc 6a 7f 34 3d 39 7c a1 bd 8d a1 3e bc
       -0.01288747 0.044066824 -0.07885022 -0.011635196
0001d0 6f 90 86 3c 31 80 bf 3d 01 f9 91 3d 7c 26 2b bd
       0.016426293 0.093506224 0.07127572 -0.04178475
0001e0 6f 4c 83 bd cb c3 06 bc 56 49 f9 3c a6 1f 6e 3e
       -0.06411063 -0.008225392 0.030430477 0.2325426
0001f0 ed df 40 bd ce f5 9f 3d c2 fb 85 3d 9a ed a8 3d
       -0.047088552 0.078105554 0.065421596 0.08248444
000200 72 6d 85 bd 64 9c 23 bd 74 7d 4f 3d fd d2 04 3e
       -0.06515016 -0.039944068 0.05065675 0.1297111
000210 33 30 7b 3c f5 a0 28 3e ac 28 08 3e 1b 20 f2 39
       0.015331316 0.1646765 0.13296765 0.00046181757
000220 b6 1c 1a bd 7f 40 80 bd 3b 2d 06 3e 33 f4 79 3d
       -0.037625037 -0.06262302 0.13103192 0.061023902
000230 6c 4b ac 3d d9 52 e5 3c 05 91 b0 bd ee 52 6f 3d
       0.08412823 0.027993606 -0.0862141 0.058428697
000240 cc f5 fe bc 44 18 0e bd 13 bc c8 bc be a9 fd bd
       -0.031123064 -0.03469111 -0.024503743 -0.123858914
000250 f4 68 d6 bd d8 08 8d bc a0 b3 83 bd 41 6d 20 3d
       -0.10469237 -0.017216131 -0.06430745 0.039166693
000260 f5 28 65 be 14 6f 97 bc 92 48 11 3d 0f df 75 3d
       -0.22378905 -0.018485583 0.0354696 0.06002718
000270 bd 55 d9 3d 1d 2b 9b bb 82 d3 e7 3d 9a 1f 8f 3d
       0.106120564 -0.004735364 0.11319639 0.069884494
000280 a7 f9 6c 3d 6a f3 b2 3c ad 6d f8 bd c3 f2 11 bd
       0.057855275 0.021844584 -0.12130294 -0.035631906
000290 52 88 d7 3d 74 6d 40 3d 6d ab 10 be d3 6d 27 bd
       0.10524048 0.046979383 -0.14127894 -0.04087622
0002a0 e2 6f fc bd 07 96 53 3d e5 1b 45 3c 86 03 84 3d
       -0.123260275 0.05165675 0.012030576 0.064459845
0002b0 bc f2 81 3b 67 60 f6 3b eb 29 bc bd 25 e8 60 bd
       0.003965704 0.0075188163 -0.09187683 -0.05490889
0002c0 b0 f7 07 be 4b fd 00 be fb 66 f6 3d 01 08 75 3d
       -0.13278079 -0.12596624 0.12031361 0.059822086
0002d0 72 cc 0f 3d 48 bb 82 3d 55 5d fa 3d e5 62 01 3e
       0.035107084 0.06383377 0.12224833 0.12635382
0002e0 b2 58 97 3e 43 03 e6 3d 04 09 3a 3d 43 3a 34 be
       0.29559857 0.11231091 0.045418754 -0.1760035
0002f0 cc d5 d2 3d 11 f7 88 bd 25 9b be bc f1 33 13 be
       0.10294685 -0.06687749 -0.023267338 -0.14375283
000300 4a df 92 3d 94 84 6e 3c bd b5 ff 3c bc 26 8b bd
       0.07171495 0.014557976 0.03121459 -0.06794497
000310 20 aa bd bc 79 87 ad 3d 1b 16 12 be 73 09 a5 bd
       -0.023152411 0.08473105 -0.14266245 -0.08058443
000320 16 01 86 3c 61 76 53 3d 01 6f dc 3d 73 2b 0b 3d
       0.01635794 0.051626567 0.1076336 0.033976983
000330 63 6d 7b bd f0 0d 12 3d bd 4b 0e bc 4e 3e 09 3e
       -0.061383616 0.035657823 -0.00868505 0.13402674
000340 f0 0e 4b be 0a b0 9a 3c da 77 d9 3d 75 bd c1 3d
       -0.19829917 0.01888277 0.10618563 0.09459964
000350 21 e5 c3 3d f2 e9 e4 bc b1 92 cd bc 96 1c b8 3d
       0.09565187 -0.027943585 -0.025094362 0.08989827
000360 54 1a 90 3d 5e e7 42 bd 50 fc 38 be a9 dc bc 3d
       0.07036272 -0.04758393 -0.18065 0.09221775
000370 78 35 18 3d e5 f4 f9 bc a7 2b 24 3d 1e d0 65 bd
       0.037160367 -0.030512283 0.040080693 -0.05610668
000380 b3 35 8a 3c c4 20 f6 3c e8 24 86 bd fb 25 3c 3c
       0.016871309 0.03004492 -0.06550008 0.011483665
000390 e5 6e 04 3e c1 4f 89 bd 90 eb 79 bd b7 ae c7 3c
       0.12932928 -0.06704665 -0.061015666 0.024375303
0003a0 ab 15 eb bb e2 96 7f 3d d2 0f b9 3d d7 0f 53 bd
       -0.007174214 0.062399752 0.090362206 -0.051528778
0003b0 d9 e5 37 bc 57 87 8e 3d 6e 2d 69 3d b4 66 16 3d
       -0.011224234 0.06959408 0.05692809 0.03671904
0003c0 3e 06 30 bd 45 f5 74 3d 91 bf 9d 3d d5 51 99 3c
       -0.042974703 0.05980422 0.07702554 0.018715778
0003d0 bd a6 88 3d 98 4e 64 bc 0c 0b 9f bd cd 58 40 bd
       0.06672428 -0.013934754 -0.07765779 -0.046959687
0003e0 46 77 9d 3c ca 52 8e 3a 28 63 1d 3d e5 c6 4b bd
       0.019221913 0.0010858413 0.03842464 -0.049750227
0003f0 83 81 7b bc 7c b0 dd bc fd 45 94 bd f5 79 f2 bd
       -0.015350702 -0.027061693 -0.07239912 -0.11839668

encoder.2.bias f4 [64]
000000 3e e9 5e 3e f3 b8 3b 3d 64 9f 5e bd eb ae 8f bd
       0.21768662 0.04583068 -0.054351225 -0.07015785
000010 90 17 13 3e 79 56 16 bd 18 3e e2 bd a3 c5 8b bd
       0.14364457 -0.03670356 -0.11047 -0.068248056
000020 97 10 4f bc 4f 6c 6d bd 27 b0 03 3e b1 3b fd 3d
       -0.012638233 -0.05796462 0.12860166 0.12364901
000030 0d 7b b0 3c ab 9e 49 3d 59 de c9 bd 3f 4d 3e be
       0.02154305 0.049223583 -0.098568626 -0.18584155
000040 45 34 97 3d 42 f9 8e bd f0 2b bd 3d b0 0f 24 3e
       0.073830165 -0.06981136 0.09236896 0.1602161
000050 51 13 98 bd 5b 81 ce bd 5b 79 8e 3d ab 5c 22 3e
       -0.07425559 -0.10083266 0.069567405 0.15855663
000060 96 bc cf 3d c1 d5 dc bd db de f6 3d 17 84 ff 3b
       0.10143392 -0.10782958 0.12054225 0.0077977288
000070 c9 ca 8d 3d 09 af 3e bc d4 93 f6 bd 23 d8 46 3d
       0.06923444 -0.011638411 -0.12039915 0.048545968
000080 bd f3 e0 3d 94 e3 25 3b 25 fb da 3b 0c 92 a3 3d
       0.109839894 0.002531265 0.006682771 0.079868406
000090 da 13 2e 39 3e 51 12 3d 9d 93 9b bd 34 70 e1 bb
       0.00016601328 0.03572201 -0.075965144 -0.0068798307
0000a0 b6 ec 22 bb 34 33 ad 3c c1 99 05 3c 09 ea 49 3d
       -0.002486033 0.02114258 0.008154334 0.04929546
0000b0 12 48 85 3d bf ed 4d 3c 5a 64 d7 3d e0 06 f8 3d
       0.06507887 0.01256889 0.105171874 0.12110686
0000c0 fd f9 92 bc a8 16 e3 3d bb 2a e8 3d 9b c9 5e bd
       -0.01794147 0.11088306 0.11336275 -0.054391485
0000d0 9b 7b ef 3c d8 46 00 3d 35 46 95 3d 35 ad 48 3e
       0.029233744 0.031317562 0.072887816 0.19597323
0000e0 43 fb 00 3d e5 64 ce 3d 4c 39 66 be dd 37 14 3e
       0.03148962 0.10077838 -0.22482795 0.14474435
0000f0 ac dc 52 3b 37 69 06 3c f6 a6 50 3d d2 7f aa 3d
       0.0032174988 0.008203796 0.050940476 0.08325161

encoder.4.weight f4 [32, 64]
000000 06 69 18 bd 5d bb 2a bd 80 00 1c be 3a 36 32 be
       -0.037209533 -0.04168259 -0.15234566 -0.17403498
000010 52 da 9c 3c d0 e7 04 bd 5b 77 fe 3c a3 65 48 bd
       0.019147072 -0.032447636 0.031062772 -0.048925053
000020 d3 d6 a9 bd 9b 54 14 be 0f 5b ad 3d 3b 5e 18 be
       -0.082929276 -0.144854 0.08464634 -0.14879696
000030 c3 70 85 3d 31 f6 27 3d 2e c3 38 be 81 8b 0d be
       0.06515648 0.04100627 -0.18043205 -0.13822748
000040 82 60 a2 bd 6e 00 2b be 78 b3 08 3e e4 55 b4 3b
       -0.07928564 -0.16699383 0.13349712 0.005503403
000050 64 e0 ec bd e5 68 42 bd 1e 23 5f bd 3c e1 03 3e
       -0.115662366 -0.047463316 -0.05447685 0.12878889
000060 9c 37 24 3e f0 92 9a bd b2 5f 14 bd 4a 8b 97 bc
       0.16036838 -0.07547557 -0.036224075 -0.018499035
000070 5c 5a 13 be 3b b4 e3 3d 1e ce 29 be ad 4d aa bd
       -0.14389938 0.111183606 -0.16582534 -0.08315597
000080 69 6a ff 3d 25 9f b1 bd d7 1e cb 3c e0 a9 2e be
       0.12471468 -0.086729325 0.024794979 -0.1705699
000090 4b 87 04 3d 2a a6 22 3d 60 22 b9 bd ec 4f 19 3e
       0.032355588 0.039709248 -0.0903976 0.14971894
0000a0 e5 ae bd bd 49 41 d0 bd 58 98 a3 3c c6 ec f7 bd
       -0.09261874 -0.10168702 0.019970104 -0.12105708
0000b0 5d 54 31 3e 28 c7 32 3d 77 b5 fe bd b7 27 a3 3d
       0.17317338 0.04364696 -0.124369554 0.079665594
0000c0 59 8d ed 3d 07 0b 4c bd 87 a8 13 be 31 75 3a bd
       0.115992256 -0.049815204 -0.14419757 -0.04552192
0000d0 11 b7 de 3d 42 4f f8 bb ff 76 8c 3d e1 4b a1 3b
       0.10874761 -0.0075778076 0.06858634 0.0049223755
0000e0 c2 d7 06 be 6b 82 d8 3d 0c 8f c5 3b 7d 28 6b 3c
       -0.13168243 0.1057175 0.0060290154 0.014352915
0000f0 b8 2e ec 3d 35 a4 64 3d 50 46 cd 3b f1 6b 05 be
       0.115323484 0.055820663 0.0062644854 -0.13029458
000100 09 b1 d1 3b 81 ac 8a 3d f2 57 c0 bb e3 97 b0 bd
       0.006399278 0.06771184 -0.005869859 -0.0862272
000110 19 d2 90 bd 06 aa 9f 3d ad bc e6 bd fc 49 d4 bc
       -0.07071323 0.07796101 -0.11266456 -0.025914185
000120 54 f3 59 3d c2 c3 04 bd da f0 5c 3d 18 d5 54 3e
       0.05321057 -0.03241325 0.05394063 0.20784414
000130 e8 06 28 3c 14 77 2d 3e 6b a7 ba bd b3 4b f1 bc
       0.010255553 0.16939956 -0.09113964 -0.029455042
000140 5b 36 35 bd 5a 53 ec bc d0 38 55 3d f1 d4 32 bd
       -0.04424129 -0.028848339 0.052056134 -0.043660108
000150 09 8f 9e 3c 86 87 fa bd 81 8c db 3d fa b8 1a bc
       0.019355314 -0.1223288 0.10720158 -0.009443516
000160 1a 03 c7 bb ca 01 04 3d 91 ec 0d 3d 5f af 28 3d
       -0.006073368 0.03222827 0.034649435 0.041182872
000170 b3 32 de 3d 8b 02 7e 3d d4 4a 0f 3e 25 54 0a be
       0.10849514 0.062014144 0.13993388 -0.13508661
000180 3b d3 f6 bd e0 ac ee 3d af ad c8 3c 20 ac f8 3c
       -0.12052008 0.11654067 0.024496881 0.030355513
000190 0b b2 fe bb c2 9d 49 bd 2c 88 4d bc c2 89 cb 3d
       -0.007772689 -0.049222715 -0.012544673 0.099383846
0001a0 d8 0c f8 3d 87 e3 ff bc 52 86 49 bd fc bd 87 3d
       0.12111825 -0.031236423 -0.049200363 0.066280335
0001b0 a1 71 7d 3d 29 07 b7 3d f5 e3 7c bd fb 6d 25 bd
       0.061875943 0.089369126 -0.061740834 -0.04038809
0001c0 75 81 1c be fa 92 23 be 3d b9 cc 3d 29 19 fd 3b
       -0.15283759 -0.15974036 0.09996269 0.0077239466
0001d0 3e f8 e7 3d 14 ac a7 bd 5b 20 a3 bc 4c d2 8a bd
       0.11326645 -0.08187118 -0.01991289 -0.06778392
0001e0 c9 c5 2c 3e 23 b4 c8 3d 40 4c e7 3d fd f1 13 3e
       0.16872324 0.09799983 0.112938404 0.1444778
0001f0 f0 f3 29 bd 54 0e 6d 3c 4a f0 ce bd b0 0d db bc
       -0.041492403 0.014468748 -0.10104425 -0.026739925
000200 c8 fa 86 3c 0a 4b df bd a8 86 51 3d 6d 39 ed bb
       0.016477004 -0.109029844 0.05115381 -0.0072395117
000210 f9 d0 31 3d c4 34 df 3c 7c 3e 7c bd 1e 3d a2 3b
       0.043412182 0.02724684 -0.061583027 0.0049511334
000220 95 fb ba 3d d5 b4 fe 3d 7b ce 86 3d df f0 bd bd
       0.09130017 0.12436835 0.06582352 -0.09274458
000230 c1 d1 41 be f0 3d 1e bd 4f 9e ab bd 17 01 98 bd
       -0.18927671 -0.038633287 -0.08379804 -0.07422083
000240 b1 d2 18 3e 21 e2 b7 3c 2f 73 93 bd 0c 1c cf 3a
       0.14924122 0.022446694 -0.07199704 0.0015801205
000250 15 5a 00 3e c1 3a 9d bc f8 dc 5c 3c f2 79 41 3e
       0.12534364 -0.019193055 0.013480417 0.18894175
000260 75 b7 d8 3d 48 5c 83 bd 5b ac c6 3c 34 05 73 bc
       0.10581867 -0.064140856 0.024252107 -0.0148327835
000270 a9 76 25 bc 2e 24 a0 3d b7 47 c0 3d 95 29 06 3e
       -0.010099092 0.07819401 0.093886785 0.131018
000280 0a 08 cb 3c e2 b0 87 3d 18 d3 2f be 65 ea ec bd
       0.024784107 0.066255346 -0.1717037 -0.11568145
000290 9d b9 11 3e 2a 0b 6e 3d 3e a4 d5 bc b4 e2 d2 3d
       0.14230962 0.058116116 -0.026079293 0.102971464
0002a0 37 87 25 3e 8c 97 b6 3d c3 7c 24 be 56 27 75 3d
       0.16164862 0.08915624 -0.16063218 0.059851967
0002b0 24 7c 2b bd fc 61 ce bd 57 14 4a 3d 6c fc 69 be
       -0.041866437 -0.10077283 0.049335804 -0.22850198
0002c0 64 4a 64 bd 7e c0 fa 3d 6b 11 c6 bd cc bb f7 bd
       -0.055735007 0.12243746 -0.09671291 -0.12096366
0002d0 fc 9c fa 3d de d4 21 3d d2 24 2c 3e b0 6e d2 bd
       0.12236974 0.039509647 0.16810921 -0.10275018
0002e0 c9 0e 63 bd 4a f0 2a 3d f0 29 34 bd 6c 10 43 3e
       -0.055434022 0.041733064 -0.043985307 0.19049233
0002f0 d6 76 e9 bd f8 7d c5 bd d6 be ca 3d 92 99 6d 3a
       -0.11399619 -0.09643167 0.0989968 0.0009063716
000300 ec b1 f7 3c e1 d1 b5 3b a3 cf cc 3d bc 10 b0 3d
       0.030236207 0.005548701 0.10000541 0.08596942
000310 39 32 28 be 5e 24 83 3d b0 9c bf bc 16 df bc bd
       -0.16425408 0.06403421 -0.023390144 -0.09222238
000320 22 42 c8 3d 66 1d 06 be 05 a0 de bd 8f 19 a8 3c
       0.09778239 -0.13097152 -0.10870365 0.02052
000330 c2 1c fa bb 3d 88 d9 3d 71 6e 62 3e 37 24 06 be
       -0.0076328227 0.106216885 0.22112443 -0.13099752
000340 b1 9c 2b 3d 0c f2 9d bc c5 fc 32 3e dc 4f f1 3d
       0.04189748 -0.019280456 0.17479236 0.1178281
000350 d1 4b 17 bc a2 f8 2d bb 34 0b 86 3d 02 9c 83 bd
       -0.009234385 -0.0026545902 0.065451056 -0.064262405
000360 96 0c ab bd 50 ec e4 3b c8 70 24 bd 3e 2f ae bc
       -0.0835201 0.0069861785 -0.04014662 -0.021262761
000370 f4 d6 44 bd c1 91 09 3e 7f 56 b0 bc 53 d1 72 3d
       -0.048056558 0.13434507 -0.02152562 0.05928166
000380 58 bd bf 3d 8e db ce 3d 29 7a a9 3d ed 45 65 bc
       0.09362286 0.101004705 0.08275253 -0.013993722
000390 c0 64 2b be 02 65 df 3d c0 ca 23 be 7f 42 34 3d
       -0.16737652 0.109079376 -0.15995312 0.044008728
0003a0 fd d6 69 3b 2e 29 53 3e ba 2b 8d 3d 39 09 f4 bd
       0.0035681122 0.20621178 0.06893106 -0.119158216
0003b0 19 71 32 3e 66 23 8b bd 46 af b8 3b 11 0b 8c 3d
       0.17425956 -0.06793861 0.0056361286 0.06838048
0003c0 df 61 5c be 27 18 0a be 90 f1 95 bc 24 56 0f 3e
       -0.2152171 -0.13485776 -0.018303663 0.13997704
0003d0 18 21 00 bd 80 32 d6 3d 14 54 99 bd fb 1f 86 bd
       -0.03128156 0.10458851 -0.0748674 -0.065490685
0003e0 0a 22 5b bd 29 fd 74 bd 72 3b ec 3d d7 13 ca 3d
       -0.05349926 -0.059811745 0.11534776 0.098670654
0003f0 33 e7 4e 3c 66 0c 32 be 72 53 c5 bd 12 06 83 bd
       0.012628364 -0.17387542 -0.096350566 -0.06397642

encoder.4.bias f4 [32]
000000 74 f9 1f 3e 23 1c 6b bd 55 c8 0b 3e eb 07 13 3e
       0.15622503 -0.05739988 0.1365064 0.14358489
000010 25 c0 0b be fa 14 06 bc fd fd cf bd 32 4f 11 3e
       -0.13647516 -0.008183712 -0.10155866 0.14190367
000020 25 7e f8 bd f7 b5 9b bd 2e d0 46 3e f7 9d 3b bd
       -0.12133435 -0.076030664 0.19415352 -0.045804944
000030 b8 da 2e bd 61 19 e5 bd 84 8b 6e 3d 9d 04 cf bc
       -0.042689055 -0.11186481 0.05823852 -0.025270754
000040 95 d4 a5 bd 80 2d fd bc e7 13 89 3e e6 fb ae bd
       -0.080971874 -0.030905485 0.26772997 -0.085441396
000050 57 a2 9d bd 88 31 5e 3c 83 1e 7a bd 43 4e e0 bd
       -0.076969795 0.013561614 -0.061064254 -0.10952427
000060 4a 20 2f 3e ae d0 2f 3e 1b cf 03 be e5 00 27 3e
       0.17102161 0.17169449 -0.12871973 0.16308935
000070 97 1a 40 be c7 80 07 3c fc 24 f1 bd ae 13 7b bc
       -0.18760143 0.008270449 -0.11774632 -0.015324516

decoder.0.weight f4 [64, 32]
000000 a7 e8 d6 3d 5e f9 2c be fe 23 16 3e 4e 09 f0 bc
       0.10493594 -0.16892001 0.14662167 -0.029301312
000010 e2 0c 0d 3e 04 bf 20 bd 69 bc 2d 3d bd e3 e2 bd
       0.13774446 -0.039244667 0.04241601 -0.11078594
000020 c3 ff aa 3b 7b fd 02 3d d1 bc ca bd 15 05 98 bd
       0.0052184775 0.03198002 -0.09899295 -0.07422844
000030 f1 43 14 3e 67 5a 4f 3e 44 d9 43 bd b9 9c a4 3d
       0.14479043 0.2024933 -0.047814623 0.08037705
000040 8b 79 21 be 3e 35 1c be 9d 49 25 3e 33 5c fe bc
       -0.15769021 -0.15254685 0.16141362 -0.031049823
000050 6d 80 c9 3c bf 18 ba 3c c6 37 61 3d 08 e1 e6 bc
       0.024597371 0.022716878 0.05498483 -0.028183475
000060 dc d1 e3 bd 0b b9 96 bc d0 0b 81 3e ba ec ba 3d
       -0.11124012 -0.018398782 0.25204325 0.09127183
000070 99 89 d8 3c bd 4f 32 3e c2 82 11 be 40 5d 5d 3d
       0.0264328 0.1741323 -0.14210036 0.05404401
000080 df 39 b4 bd 3e 28 b9 3d 74 db 9c 3d 17 72 df bd
       -0.088001005 0.09040879 0.07659045 -0.10910433
000090 0b 85 51 3e a4 5e 6a 3d 0e f6 99 bc 38 e0 e8 3d
       0.20460908 0.057219163 -0.018794086 0.11370891
0000a0 fb e7 df bd 4f e5 3d 3c 17 f0 25 3e 49 73 4e bc
       -0.10932919 0.011590316 0.16204868 -0.012600728
0000b0 2f d9 05 bd 7a e6 4d 3e 86 0d 04 3e 1c 91 58 3e
       -0.032677826 0.20107451 0.12895784 0.21149105
0000c0 bb 2f 02 be ee c3 4d 3d b2 45 1c be 1b 10 76 3c
       -0.1271352 0.05023568 -0.15260962 0.015018488
0000d0 87 c7 e9 bd 4f e2 4c bd 4f 99 84 3c b7 62 94 bd
       -0.1141501 -0.050020512 0.016186384 -0.07245391
0000e0 99 09 07 be 63 1f c4 3d f2 e5 e0 bd 52 38 34 3e
       -0.13187255 0.09576299 -0.109813586 0.1759961
0000f0 8b 1f 64 bd f2 aa 41 be c6 16 4a be 27 be a8 3d
       -0.055694144 -0.18912867 -0.1973525 0.08239394
000100 86 db 2a 3b a8 28 35 bc c6 f3 ac 3c f3 1b 1e be
       0.0026070788 -0.0110570565 0.021112334 -0.1544035
000110 4e d8 c8 3d 44 8b aa 3d d5 21 92 bc c4 69 04 be
       0.09806882 0.08327344 -0.017838398 -0.12930971
000120 c2 54 3d be b2 f6 53 bd 64 57 4f 3d 21 59 9a 3c
       -0.18489364 -0.05174894 0.05062045 0.018841328
000130 82 09 3f bd 91 e3 fb 3d 1c 4a 12 3e 8d fe 2f 3e
       -0.046639927 0.12299264 0.14286083 0.17186947
000140 dc 81 ff bd ab 1a ec 3d b8 d7 2b 3e d8 b3 f9 bd
       -0.124759406 0.11528524 0.16781509 -0.121925056
000150 a5 c9 48 3d 23 74 db bd b4 32 e0 3d f7 52 c8 bd
       0.04902043 -0.10715511 0.10947171 -0.09781449
000160 f4 5c 80 3b 44 a0 d2 bd c0 58 1d be b8 da 84 3d
       0.003917331 -0.102844745 -0.15365887 0.0648703
000170 89 5f 24 3e 69 7b f3 3d 35 4e 38 be bd 1f 4e bd
       0.16052069 0.11888773 -0.17998584 -0.050323237
000180 7b 1e cb 3d e9 9f 90 bd 9a 7e 2e 3e e2 f4 87 3d
       0.09917923 -0.070617504 0.17040482 0.066385046
000190 9f cc bb 3c f0 9b 4e be 48 70 80 bd f1 0a 22 be
       0.02292472 -0.20176673 -0.06271416 -0.15824486
0001a0 b7 58 5d 3e 4e bc f9 3c 43 4c 21 3e 1d 0e f2 bd
       0.21615873 0.030485298 0.15751748 -0.11819098
0001b0 f6 e1 76 3d ce 50 d8 3d 95 72 72 be fd b8 9e 3d
       0.060274087 0.10562287 -0.23676522 0.077501275
0001c0 4e 6f 38 be 0a 82 eb bd d2 aa 98 3e ea 1b 4d 3e
       -0.1801121 -0.11499412 0.29817826 0.2003018
0001d0 c8 f8 03 3e 44 50 9e 3d 19 61 ea bd 0a 90 82 be
       0.12887871 0.07730153 -0.11444301 -0.25500518
0001e0 f8 3f 27 3d 07 1c 17 3d 55 d1 c2 bc 3a 24 43 3d
       0.04083249 0.036891963 -0.023781458 0.04764197
0001f0 d2 38 83 bd 95 a8 9f 3d b4 2f a1 3e 0f 91 52 be
       -0.06407322 0.07795826 0.31481707 -0.20563148
000200 0e 56 1c 3e bc f7 f1 3d ef 82 4d be a9 20 26 bc
       0.15267202 0.1181483 -0.20069478 -0.010139623
000210 d5 9c cf bd 3b 3a f4 bd 2c 25 a1 3d 52 d7 2f 3b
       -0.10137335 -0.11925169 0.07868418 0.0026831222
000220 a6 d9 1f be 50 aa d4 bd 17 0c ce 3d 51 3f 3f be
       -0.1561037 -0.10384047 0.100609 -0.18676497
000230 f6 0f 27 bd 9d f6 82 bd 08 f8 4b 3d e5 42 0c 3b
       -0.040786706 -0.06394694 0.049797088 0.0021402177
000240 c4 78 4b bd 73 86 e7 3d d3 a1 a6 3d 93 dd cc 3c
       -0.049675718 0.11304941 0.08136334 0.025007999
000250 af b2 05 bd 9b 96 f8 bb 36 90 23 be 7e 90 5d be
       -0.03264111 -0.007586313 -0.15972981 -0.2163715
000260 d9 33 5a 3e 2f 56 16 be bd c2 92 bd 17 80 a6 3d
       0.21308841 -0.14681314 -0.0716605 0.081299
000270 8a 6c 43 3d 23 ab 3f be a9 65 94 3c 4c a2 dd bc
       0.047710933 -0.18717627 0.018114882 -0.027054928
000280 82 1e b4 3d e9 f1 63 bd 61 be f9 3d e1 88 56 be
       0.087948814 -0.055650625 0.12194515 -0.20950653
000290 37 69 03 be 5c 88 5b be e4 68 b4 3c 61 33 6f be
       -0.12833105 -0.21438736 0.022022672 -0.23359443
0002a0 c8 46 ed bd 56 4e 50 be 15 74 59 3c 01 3b 86 3d
       -0.11585766 -0.20342383 0.013272305 0.06554223
0002b0 00 c4 90 3d b9 70 b6 3c 8f 4a 15 3d cc b0 03 be
       0.07068634 0.022270547 0.036448058 -0.12860411
0002c0 d1 c9 33 be d9 f0 2c be e5 31 09 be 15 46 28 3e
       -0.17557456 -0.16888751 -0.1339794 0.16432984
0002d0 2d f6 a4 bd 57 f5 1d be 72 31 a1 3d 2b cf 1f 3d
       -0.08054767 -0.15425621 0.07870759 0.03901593
0002e0 87 34 29 3e 85 eb 03 bd 9f 16 a6 3d 00 e4 28 bd
       0.16523944 -0.03220703 0.081097834 -0.041233063
0002f0 ff b0 94 3d c2 1f 44 bc 5d bb 4e be 08 c2 df bd
       0.07260322 -0.011970462 -0.20188661 -0.109256804
000300 a0 d5 57 3d 0b 99 1b 3e 80 a8 18 3e 06 7e 1a be
       0.052693963 0.151951 0.14908028 -0.15087137
000310 be 62 96 3c 20 fb ec bd 01 b7 50 be 06 68 d2 bc
       0.01835763 -0.11571336 -0.2038231 -0.025684368
000320 14 7d 08 3e 9f 7f 12 be b1 62 81 bd de 42 a0 bc
       0.13328964 -0.14306496 -0.06317652 -0.019563135
000330 3d e7 5d bd 26 3b 0c 3e bd 91 fe bd 38 43 d7 3d
       -0.054175604 0.13694438 -0.12430141 0.10510868
000340 ba 38 d5 3d 7a ac 1a be 1b a4 a7 3d 36 a0 40 be
       0.1041121 -0.15104857 0.081855975 -0.18811116
000350 4b 71 5b be ab 11 18 3b 42 c5 0d 3e f2 1d 82 be
       -0.21429937 0.002320389 0.13844779 -0.2541347
000360 2e 57 81 3d 3e bb 46 be 69 05 fe 3d 2c 32 4b be
       0.06315456 -0.19407365 0.12403376 -0.19843358
000370 46 17 3c bd 05 f1 c9 3d a0 db 37 3d c6 7d 89 bd
       -0.045920633 0.09860424 0.044887185 -0.067134425
000380 3b 84 31 be 1b d3 4e 3d 01 4a bd bd 9f 5a 0c be
       -0.17335598 0.050494295 -0.09242631 -0.13706444
000390 33 27 5a 3e 9b 82 25 3d d5 ed 64 bd 32 2d d1 bd
       0.21304016 0.04040776 -0.055890877 -0.102136984
0003a0 26 f3 5c 3e c8 b7 ca 3d 98 64 f7 bd db ae 00 3e
       0.21577129 0.09898335 -0.120797336 0.12566702
0003b0 92 59 21 be 82 3d 25 3e bd 13 92 3c 79 b8 e6 3c
       -0.15756825 0.16136745 0.017831678 0.028164135
0003c0 1d 90 5d 3e dc 0a 70 be 64 bf 69 3e b7 4a 34 3e
       0.21637006 -0.23441643 0.22826916 0.17606626
0003d0 f4 83 3e 3d a3 4a 37 bd e2 52 2e be 83 a6 44 3d
       0.04651256 -0.044748913 -0.17023805 0.04801036
0003e0 5e d8 1f bd 85 2d 82 3d f5 f9 a0 3c f0 04 28 be
       -0.039024703 0.063563384 0.019650439 -0.16408134
0003f0 78 35 f5 3d 60 d9 46 bd 2b f8 30 be ff 7e 84 bd
       0.11973089 -0.04854715 -0.17282169 -0.06469535

decoder.0.bias f4 [64]
000000 cf 90 38 bd 33 82 47 3e 3e 80 14 be f1 fe 0b 3e
       -0.045059975 0.19483261 -0.14502046 0.13671471
000010 93 3e 54 bc 12 1a a3 3e 86 83 c7 bc 4a d0 9c be
       -0.012954372 0.31855828 -0.024354707 -0.30627662
000020 85 6a 05 bf 82 8d 0a 3d 31 4c d9 bb 60 81 8a 3e
       -0.5211566 0.03382636 -0.006631397 0.2705183
000030 33 04 ac 3e 59 56 22 3e 1b 15 32 3e 2a 84 3c be
       0.33596954 0.15853252 0.17390864 -0.18409792
000040 91 e7 39 3e 7f 8b 7f 3e 0e 48 fd 3d af cf 9b 3e
       0.18154742 0.24955557 0.12367259 0.30431888
000050 e8 88 bd 3b 2b 8a 2b bd 5a f8 77 3c bb 9a cc bc
       0.0057841428 -0.041879814 0.015134895 -0.024976125
000060 a9 97 a9 3d 46 15 de be 93 fc eb 3d ed 32 07 3f
       0.0828088 -0.43375605 0.11522784 0.5281208
000070 14 7a fa be ba 96 f7 bd ff 5d 4c bc 97 a1 7b be
       -0.48921263 -0.12089296 -0.012473582 -0.2457336
000080 48 7a c7 be 76 a4 13 be ec 1d a6 3e 4a 76 c1 bc
       -0.3896048 -0.14418206 0.32444704 -0.023615975
000090 d7 9b c1 3c a7 ce 65 3e 1f 7e cd bd c0 0c 9a bd
       0.02363388 0.22442113 -0.10033821 -0.07521963
0000a0 1c d8 8b 3d 75 5f fb 3d 48 a5 8a 3d 90 66 86 3e
       0.06828329 0.12274066 0.06769806 0.26250124
0000b0 90 da 92 3e 9f b3 bb 3e 68 8a ff 3d 7b c7 b6 bd
       0.28682375 0.36660478 0.12477571 -0.08924767
0000c0 b7 50 9e be c9 ac 91 bd e5 7f 47 be b8 eb 7a be
       -0.30920956 -0.07113034 -0.19482382 -0.24503982
0000d0 ec 18 3e bd 62 34 aa 3e b8 99 10 3e 40 58 40 3e
       -0.046410486 0.3324309 0.14121139 0.18783665
0000e0 2d 90 50 bd 17 34 26 be e9 a4 3c be c7 47 46 bd
       -0.050918747 -0.16230808 -0.18422283 -0.048408296
0000f0 f9 13 8d be f3 7c e1 3d e6 d4 e0 bd 74 15 0d be
       -0.275543 0.1101016 -0.10978107 -0.13777715

decoder.2.weight f4 [128, 64]
000000 6c 59 a4 3e 81 6f d9 b6 e8 92 2e 3e d5 63 08 3e
       0.32099473 -6.4800847e-06 0.17048228 0.13319333
000010 c1 52 a7 3c 40 fa 46 3d d7 8f bf bd dc 70 00 bd
       0.020425202 0.0485785 -0.09353607 -0.03135763
000020 50 10 6e 3d a9 85 ae bd f5 0d 92 bd f0 00 26 bd
       0.058121026 -0.085215874 -0.07131568 -0.040528238
000030 38 c4 29 bd 40 4c a0 bc 2f 7d b8 bd bb be 3b 3d
       -0.041446894 -0.019567609 -0.09008252 0.04583619
000040 19 16 11 bd 49 b6 13 3d ce 36 1d 3e 9e b0 c4 3d
       -0.035421465 0.036062513 0.15352938 0.096039996
000050 fb 8e f0 3d 4f 2e b3 3d 4b e8 eb bc 82 d5 94 3d
       0.11746021 0.08749067 -0.02879729 0.07267286
000060 13 2d d8 3d 0e 01 d9 bc aa 77 a0 3d 55 0d 08 bc
       0.10555472 -0.02648976 0.07835324 -0.00830396
000070 bd 22 ac 3c 32 8f 0d be 60 5d ef 3d 19 9f 79 bd
       0.021012658 -0.13824156 0.11687732 -0.060942743
000080 6a 91 9b bd c1 b8 74 3e bb b2 ee bc 4b 95 c4 bd
       -0.07596095 0.23898603 -0.02913796 -0.09598788
000090 8d cd 83 bc 1d ce 99 be fb 42 bd bd a1 01 73 bd
       -0.016089225 -0.30040064 -0.09241291 -0.059327725
0000a0 a7 2c 73 3e 4e 3e 97 bd 65 84 15 3d 79 32 b7 bd
       0.23747502 -0.073849306 0.036503214 -0.08945174
0000b0 4c db 23 3e e8 59 12 bd 6c 88 f7 3c bb fd 08 3e
       0.16001624 -0.035730273 0.030216418 0.1337804
0000c0 dc 73 0c 3d 99 54 48 bc 44 d3 ec 3d ba a6 10 be
       0.03429018 -0.012227201 0.11563733 -0.14126101
0000d0 52 4c 07 be 7a af ba 3d 3e 23 2d 3d d6 d1 ff bd
       -0.13212708 0.09115501 0.042269938 -0.12491195
0000e0 8e 0c f7 3d c8 ed e9 3b b7 a3 8b bd 44 86 2f bd
       0.120629415 0.0071389414 -0.068183355 -0.042852655
0000f0 ce dd 56 be d1 77 45 be 63 47 c1 3d bd eb 16 3e
       -0.2098305 -0.19283988 0.09437444 0.14738365
000100 0e 33 4f be 91 4f e9 3d c3 3b 39 bb 0f c1 a2 3d
       -0.2023432 0.11392129 -0.002826438 0.07946979
000110 fc a5 c3 bb 50 84 09 3e d7 4f 47 bd 51 eb 32 3e
       -0.0059707146 0.1342938 -0.048660126 0.17472579
000120 d6 54 83 bd 1d da 03 3e b7 20 fe 3d 2c 51 02 3e
       -0.064126655 0.12876172 0.124085836 0.12726277
000130 e8 5c c3 bd 8b 77 c1 3d 87 5d 9d bd 9f 2f db 3d
       -0.09539205 0.09446629 -0.076838546 0.107024424
000140 aa f7 df 3d 19 ee e5 3d c5 90 b0 bd 1e 04 b1 bd
       0.1093591 0.11227054 -0.086213626 -0.086433634
000150 84 e9 8d bb 33 5f 7f 3d ac 41 13 3e 7f f6 30 3e
       -0.0043308157 0.06234665 0.1438052 0.17281531
000160 42 77 1a 3e 9f 27 e8 bd 88 d7 9a 3d b5 9f 7c bd
       0.15084556 -0.11335682 0.075606406 -0.061675746
000170 2e 39 39 bc a6 31 4d bd d4 9e 55 bd 52 bb ea bd
       -0.011305137 -0.050096177 -0.052153423 -0.1146151
000180 5d 60 37 3d 24 77 12 3d 93 dc c9 bd cf b0 5a 3e
       0.044769634 0.035758153 -0.09856524 0.2135651
000190 0e b2 cc bd 43 ec 76 be 81 54 55 bd e6 ef 91 3c
       -0.09994899 -0.24113564 -0.052082542 0.017814588
0001a0 3c 3b 83 3c bf f1 9b bd 7b 88 00 be e1 ad 0f 3d
       0.016019456 -0.07614469 -0.12552063 0.035077933
0001b0 41 f6 cf bd 49 fb b4 3c 53 df 12 3e 1f 2d 4f 3e
       -0.10154391 0.022092478 0.14343004 0.20232056
0001c0 e5 2a bf 3b 3c c5 80 bc ba e2 c5 bd 48 b6 19 bd
       0.005833971 -0.015719049 -0.09662385 -0.037527353
0001d0 95 8a 35 be 65 56 ce 3d 52 d9 ff 3d 9a 5f 0d bc
       -0.17728646 0.10075072 0.124926224 -0.00862875
0001e0 5a 06 b9 bd f0 6b b4 bd 67 09 a4 bd c8 ed 18 be
       -0.090344146 -0.0880965 -0.08009606 -0.14934456
0001f0 94 48 57 3b 21 2d dd 3d d7 3e bc 3d 3f 35 9b 3d
       0.0032849656 0.10799623 0.09191673 0.07578515
000200 b9 14 e6 bd d5 1c d4 3c 09 9b 00 be f0 06 65 bc
       -0.11234421 0.025892654 -0.12559141 -0.013978705
000210 cd 99 63 3d 88 7a c6 3d 47 1f 25 bd ff b5 de bd
       0.055566598 0.0969134 -0.04031303 -0.10874557
000220 2b dd 74 be 3f c8 1e 3e 5b de 1d 3e 38 0a e4 bd
       -0.23912494 0.15506075 0.15416853 -0.111347616
000230 17 12 0c bd 75 9d e4 3d 29 05 c8 3d 1c 32 28 3e
       -0.03419694 0.11162845 0.09766609 0.16425365
000240 4e 4c aa 3d a4 3b a9 3c e9 8e f2 3d f2 12 b3 3d
       0.08315335 0.020658322 0.11843664 0.08743848
000250 e5 17 c2 3d 63 fb 2c 3d 60 3f f3 3c 63 00 12 bc
       0.09477214 0.04223193 0.029693305 -0.008911225
000260 71 19 e3 3d 2c 26 93 3d 4b e8 61 bd 53 80 8f be
       0.11088837 0.07185015 -0.055153172 -0.2802759
000270 07 30 c4 bb 20 f2 bc bc 91 a1 91 3d c8 e2 ae bd
       -0.0059871706 -0.023064673 0.071108945 -0.08539349
000280 27 c2 7c bd fd b5 79 3d 55 8e db 3d ce 43 01 3e
       -0.061708596 0.060964573 0.10720507 0.12623522
000290 09 a3 3a 3d b5 1e c1 bd b5 e6 2e 3d b6 4c d0 3d
       0.04556564 -0.09429685 0.042700488 0.101708815
0002a0 d8 6e 8d bd 27 94 82 3d d7 bc 2d be 51 c9 64 3d
       -0.069059074 0.06375914 -0.16966568 0.055856053
0002b0 41 eb d7 3c d4 3e fc bc 08 71 4a 3d 02 ed 25 3d
       0.026357295 -0.030791678 0.0494242 0.04050923
0002c0 12 02 29 be 28 0d 23 be a8 06 fd 3c aa b9 78 3d
       -0.16504696 -0.15922987 0.030886963 0.060723938
0002d0 6f 92 8e 3c 2c 71 85 bd e6 51 84 3d 20 c6 c8 bd
       0.01740381 -0.065157264 0.064609334 -0.09803414
0002e0 17 74 1f bd 61 37 80 bd ad 55 c1 3c 87 9f 18 3d
       -0.03892907 -0.06260563 0.023600424 0.037261512
0002f0 e0 48 8a bd 7d fd b3 bc 8f c4 fe bc 78 6f 99 3d
       -0.06752181 -0.021971459 -0.031099586 0.07491964
000300 8d 92 2a be 00 5d 42 bd 2f 69 02 bc 9b ec bc bd
       -0.16657467 -0.047451973 -0.007959648 -0.092248164
000310 c0 eb f2 bc 99 d2 33 bc fb d8 90 3d 1f 25 02 bc
       -0.02965343 -0.010975503 0.07072636 -0.007943421
000320 46 8e 8d 3e b8 71 2c bc 5d 57 e7 3d c3 9e ce 3d
       0.2764761 -0.01052516 0.1129596 0.10088875
000330 8e d5 18 3d 93 50 34 bb 69 34 f4 3d 42 d3 73 bb
       0.037313037 -0.0027513846 0.11924059 -0.0037204777
000340 4e 83 92 bd 5d aa 12 be c2 0a 00 3e 6c ad 99 3b
       -0.07153951 -0.14322801 0.12504104 0.004689863
000350 a7 cb 5f bd 50 86 ad bc ce d0 0a bc f2 e6 c3 ba
       -0.054637577 -0.02118221 -0.0084726345 -0.0014946146
000360 11 3b 09 be f1 95 56 3d 11 25 07 be 5c c8 4e bb
       -0.13401438 0.05238909 -0.13197733 -0.003155253
000370 c0 2c 9a 3d 57 fb 5c bd b9 54 c8 3b fd 60 1b bd
       0.07528067 -0.053950634 0.0061136154 -0.037934292
000380 da 3c 76 bd 6f 9a 0f be 6b e3 98 ba ee 64 40 be
       -0.060116626 -0.14023755 -0.0011664456 -0.18788502
000390 6f 12 e6 bd 4a 1f 28 3e 03 19 be 3d 8f bb 8c bc
       -0.11233985 0.16418186 0.09282114 -0.017179279
0003a0 30 fd f7 bc ce 7a dd 3c bd e3 4f 3e 41 d6 51 3d
       -0.030272096 0.027036097 0.20301719 0.05122972
0003b0 1c d3 68 bd 2b 1b 09 3d c7 68 9d bb 29 1f b7 3d
       -0.056841955 0.033473175 -0.00480375 0.0894149
0003c0 91 ac ac bd dc ca fa bc c5 a1 8e 3d 6e 02 32 3d
       -0.08431352 -0.030614309 0.06964449 0.04345935
0003d0 8e 97 4b 3c c9 c2 13 3a d4 ed be be ef 96 ce 3d
       0.01242627 0.000563663 -0.37290823 0.10087382
0003e0 f1 11 d5 bd bd aa 6e 3d 0c b9 0a 3e a7 83 34 bc
       -0.10403813 0.058268297 0.13547152 -0.0110177165
0003f0 13 6f 83 3d b6 9b 7c 3d 20 68 28 bc 9a 41 97 3c
       0.0641767 0.061671935 -0.010278732 0.018463898

decoder.2.bias f4 [128]
000000 05 5b 55 3e 4e 33 70 3d dd 06 51 3e 3c 7f 8c bd
       0.20835502 0.058642678 0.20412774 -0.068602055
000010 3e 04 47 3d 26 13 e7 3d 9a be be bd 5a 28 a0 bd
       0.04858803 0.11282949 -0.09313698 -0.078201964
000020 7d e3 c9 3d fa c7 d2 bd 07 2b 01 bc dc 6b 4c 3c
       0.09857843 -0.10292049 -0.007883794 0.012476888
000030 c3 63 39 bb bd a7 7d 3d 9f 89 e8 bc ff c4 85 be
       -0.0028288222 0.061927546 -0.028385935 -0.2612686
000040 7c c2 87 3d e3 62 c3 bd b2 ce 05 bf a9 5d 92 3e
       0.06628892 -0.095403455 -0.52268517 0.28587082
000050 a1 cc 0c be 86 a4 dc bd 9b 27 98 be e6 1a 1e 3f
       -0.13749935 -0.10773568 -0.29717717 0.61759794
000060 eb 4d 7b 3e 8e 60 69 3c ee 00 0d 3e 85 4d a0 3e
       0.24541442 0.014244212 0.13769886 0.31309143
000070 b3 8b 21 be 80 20 25 3e 2a ff a3 bd 0b 57 c2 bd
       -0.15775947 0.16125679 -0.08007653 -0.094892584
000080 b4 01 61 3d 6b 88 02 be e6 23 44 be 5b 32 aa 3e
       0.054933265 -0.12747352 -0.19154319 0.33241543
000090 ff 2c 8d 3e 8d b7 55 be b8 6b 52 be ed 12 1b be
       0.27573392 -0.208708 -0.20548904 -0.15143938
0000a0 6d 3a 2e bd 7d e4 88 be 18 dc e4 3d 71 43 c3 be
       -0.042536188 -0.26736823 0.11174792 -0.3813739
0000b0 0e 76 9b bd 0b cb 55 be c0 43 4e be 97 32 20 3e
       -0.075908765 -0.20878236 -0.20143032 0.15644298
0000c0 31 5a d3 3e 62 c5 3f 3e 6f 3a 60 3d e2 2b 69 bc
       0.41279748 0.1872764 0.054743227 -0.014231654
0000d0 78 fa 06 3f 98 fe 60 be 07 19 96 be 5a 4d 9a 3c
       0.52725935 -0.2197212 -0.2931597 0.018835712
0000e0 8b 26 31 3e 67 65 b4 3d 9f 2c 9a be 62 24 30 be
       0.17299859 0.088084035 -0.30112168 -0.17201379
0000f0 c8 25 7b be 5b 79 bd 3e dd 13 20 3e a4 12 52 3e
       -0.24526131 0.3700665 0.15632577 0.20514923
000100 31 ce be be 49 ee 15 bd 01 a0 97 be 4a 62 52 3e
       -0.37266687 -0.0366042 -0.2961426 0.20545307
000110 bd 5c a3 3e 43 73 40 3e 0b 41 d2 bd 24 c3 40 bd
       0.3190669 0.18793969 -0.10266312 -0.0470611
000120 97 84 03 be 23 2a 9b 3d 95 9c e5 bc 63 e3 e3 3e
       -0.12843548 0.07576396 -0.028028766 0.4450942
000130 80 38 44 bd db ae e5 3d 02 87 e4 3e 22 c5 6b be
       -0.047905445 0.11214992 0.44634253 -0.23024419
000140 2a 90 a2 3d 89 9e 71 3d dc bc d8 bd 3c 6c d6 be
       0.07937653 0.05898908 -0.10582897 -0.4187945
000150 fe 80 fa bd 77 c8 9d 3d 84 77 9c 3d a7 84 42 bc
       -0.122316346 0.07704251 0.07639983 -0.011872447
000160 1d 50 a6 3d b1 bb 9c 3d 1b 3f ac 3e cb fc 14 bd
       0.08120749 0.07652987 0.33641896 -0.036373895
000170 bb fc 2c bf af dd 64 3e 80 9a 0e be 37 6b da be
       -0.67573136 0.2235019 -0.13926125 -0.42659923
000180 df 54 be 3d c3 1f 58 3e 18 f0 9a be a4 2f bf 3c
       0.092935316 0.21105866 -0.30261302 0.023338147
000190 25 ad f8 be 01 a4 a7 3e 80 db 34 3d 14 5b 26 3e
       -0.485696 0.32742313 0.044154644 0.16245681
0001a0 82 dd 2c be 7a 1b 32 be fc 5c 4a bd 51 ea 2e be
       -0.16881374 -0.17393294 -0.049405083 -0.17081572
0001b0 0f 99 04 3f 42 39 7e 3d 19 64 cf bd 15 de 5e bd
       0.5179605 0.062066324 -0.10126514 -0.054411013
0001c0 bb a6 b4 3d 03 67 89 3e 7d 30 e3 3d 7b b0 b6 3d
       0.08820864 0.26836404 0.11093233 0.0892038
0001d0 c6 53 0a be d4 92 9f be 4b a1 d4 3e bd 8d 5e be
       -0.1350852 -0.31166708 0.41529307 -0.21733756
0001e0 d2 f3 06 3e 21 ee 20 3e 15 34 5f be 82 5a e2 bd
       0.13178948 0.15715839 -0.21797211 -0.11052419
0001f0 c7 79 93 bd 70 e3 9e bc d5 32 a1 3e 1c 71 a9 be
       -0.072009616 -0.01939556 0.31484094 -0.33094108
